…
    true_params=true_params, density_estimator=density_estimator, num_params=num_params, num_samples=num_samples)
  File "/mnt/qb/home/macke/kanderer29/sbi_for_eeg_data/code/data_load_writer/write_to_file.py", line 46, in __init__
    os.mkdir(self.folder)
OSError: [Errno 36] File name too long: 'results/ERP_9stats_Flow(\n  (_transform): CompositeTransform(\n    (_transforms): ModuleList(\n      (0): AffineTransform()\n      (1): CompositeTransform(\n        (_transforms): ModuleList(\n          (0): CompositeTransform(\n            (_transforms): ModuleList(\n              (0): PiecewiseRationalQuadraticCouplingTransform(\n                (transform_net): ResidualNet(\n                  (initial_layer): Linear(in_features=10, out_features=50, bias=True)\n                  (blocks): ModuleList(\n                    (0): ResidualBlock(\n                      (context_layer): Linear(in_features=9, out_features=50, bias=True)\n                      (linear_layers): ModuleList(\n                        (0): Linear(in_features=50, out_features=50, bias=True)\n                        (1): Linear(in_features=50, out_features=50, bias=True)\n                      )\n                      (dropout): Dropout(p=0.0, inplace=False)\n                    )\n                    (1): ResidualBlock(\n                      (context_layer): Linear(in_features=9, out_features=50, bias=True)\n                      (linear_layers): ModuleList(\n                        (0): Linear(in_features=50, out_features=50, bias=True)\n                        (1): Linear(in_features=50, out_features=50, bias=True)\n                      )\n                      (dropout): Dropout(p=0.0, inplace=False)\n                    )\n                  )\n                  (final_layer): Linear(in_features=50, out_features=58, bias=True)\n                )\n              )\n              (1): LULinear()\n            )\n          )\n          (1): CompositeTransform(\n            (_transforms): ModuleList(\n              (0): PiecewiseRationalQuadraticCouplingTransform(\n                (transform_net): ResidualNet(\n                  (initial_layer): Linear(in_features=11, out_features=50, bias=True)\n                  (blocks): ModuleList(\n                    (0): ResidualBlock(\n                      (context_layer): Linear(in_features=9, out_features=50, bias=True)\n                      (linear_layers): ModuleList(\n                        (0): Linear(in_features=50, out_features=50, bias=True)\n                        (1): Linear(in_features=50, out_features=50, bias=True)\n                      )\n                      (dropout): Dropout(p=0.0, inplace=False)\n                    )\n                    (1): ResidualBlock(\n                      (context_layer): Linear(in_features=9, out_features=50, bias=True)\n                      (linear_layers): ModuleList(\n                        (0): Linear(in_features=50, out_features=50, bias=True)\n                        (1): Linear(in_features=50, out_features=50, bias=True)\n                      )\n                      (dropout): Dropout(p=0.0, inplace=False)\n                    )\n                  )\n                  (final_layer): Linear(in_features=50, out_features=29, bias=True)\n                )\n              )\n              (1): LULinear()\n            )\n          )\n          (2): CompositeTransform(\n            (_transforms): ModuleList(\n              (0): PiecewiseRationalQuadraticCouplingTransform(\n                (transform_net): ResidualNet(\n                  (initial_layer): Linear(in_features=10, out_features=50, bias=True)\n                  (blocks): ModuleList(\n                    (0): ResidualBlock(\n                      (context_layer): Linear(in_features=9, out_features=50, bias=True)\n                      (linear_layers): ModuleList(\n                        (0): Linear(in_features=50, out_features=50, bias=True)\n                        (1): Linear(in_features=50, out_features=50, bias=True)\n                      )\n                      (dropout): Dropout(p=0.0, inplace=False)\n                    )\n                    (1): ResidualBlock(\n                      (context_layer): Linear(in_features=9, out_features=50, bias=True)\n                      (linear_layers): ModuleList(\n                        (0): Linear(in_features=50, out_features=50, bias=True)\n                        (1): Linear(in_features=50, out_features=50, bias=True)\n                      )\n                      (dropout): Dropout(p=0.0, inplace=False)\n                    )\n                  )\n                  (final_layer): Linear(in_features=50, out_features=58, bias=True)\n                )\n              )\n              (1): LULinear()\n            )\n          )\n          (3): CompositeTransform(\n            (_transforms): ModuleList(\n              (0): PiecewiseRationalQuadraticCouplingTransform(\n                (transform_net): ResidualNet(\n                  (initial_layer): Linear(in_features=11, out_features=50, bias=True)\n                  (blocks): ModuleList(\n                    (0): ResidualBlock(\n                      (context_layer): Linear(in_features=9, out_features=50, bias=True)\n                      (linear_layers): ModuleList(\n                        (0): Linear(in_features=50, out_features=50, bias=True)\n                        (1): Linear(in_features=50, out_features=50, bias=True)\n                      )\n                      (dropout): Dropout(p=0.0, inplace=False)\n                    )\n                    (1): ResidualBlock(\n                      (context_layer): Linear(in_features=9, out_features=50, bias=True)\n                      (linear_layers): ModuleList(\n                        (0): Linear(in_features=50, out_features=50, bias=True)\n                        (1): Linear(in_features=50, out_features=50, bias=True)\n                      )\n                      (dropout): Dropout(p=0.0, inplace=False)\n                    )\n                  )\n                  (final_layer): Linear(in_features=50, out_features=29, bias=True)\n                )\n              )\n              (1): LULinear()\n            )\n          )\n          (4): CompositeTransform(\n            (_transforms): ModuleList(\n              (0): PiecewiseRationalQuadraticCouplingTransform(\n                (transform_net): ResidualNet(\n                  (initial_layer): Linear(in_features=10, out_features=50, bias=True)\n                  (blocks): ModuleList(\n                    (0): ResidualBlock(\n                      (context_layer): Linear(in_features=9, out_features=50, bias=True)\n                      (linear_layers): ModuleList(\n                        (0): Linear(in_features=50, out_features=50, bias=True)\n                        (1): Linear(in_features=50, out_features=50, bias=True)\n                      )\n                      (dropout): Dropout(p=0.0, inplace=False)\n                    )\n                    (1): ResidualBlock(\n                      (context_layer): Linear(in_features=9, out_features=50, bias=True)\n                      (linear_layers): ModuleList(\n                        (0): Linear(in_features=50, out_features=50, bias=True)\n                        (1): Linear(in_features=50, out_features=50, bias=True)\n                      )\n                      (dropout): Dropout(p=0.0, inplace=False)\n                    )\n                  )\n                  (final_layer): Linear(in_features=50, out_features=58, bias=True)\n                )\n              )\n              (1): LULinear()\n            )\n          )\n        )\n      )\n    )\n  )\n  (_distribution): StandardNormal()\n  (_embedding_net): Sequential(\n    (0): Standardize()\n    (1): Identity()\n  )\n)_num_params:3_11-26-2021_13:01:32'
